…
[2026-05-07 12:10:22]   Total parameters:      17,670
[2026-05-07 12:10:22]   Trainable parameters:  17,670
[2026-05-07 12:10:23] ======================================================================================================================================================
Layer (type (var_name):depth-idx)                  Input Shape               Output Shape              Param #                   Kernel Shape
======================================================================================================================================================
SignalJEPA_PreLocal (SignalJEPA_PreLocal)          [1, 60, 921]              [1, 2]                    --                        --
├─Sequential (spatial_conv): 1-1                   [1, 60, 921]              [1, 4, 921]               --                        --
│    └─Rearrange (0): 2-1                          [1, 60, 921]              [1, 1, 60, 921]           --                        --
│    └─Conv2d (1): 2-2                             [1, 1, 60, 921]           [1, 4, 1, 921]            244                       [60, 1]
│    └─Rearrange (2): 2-3                          [1, 4, 1, 921]            [1, 4, 921]               --                        --
├─_ConvFeatureEncoder (feature_encoder): 1-2       [1, 4, 921]               [1, 28, 64]               --                        --
│    └─Rearrange (0): 2-4                          [1, 4, 921]               [4, 1, 921]               --                        --
│    └─Sequential (1): 2-5                         [4, 1, 921]               [4, 8, 112]               --                        --
│    │    └─Conv1d (0): 3-1                        [4, 1, 921]               [4, 8, 112]               256                       [32]
│    │    └─Dropout (1): 3-2                       [4, 8, 112]               [4, 8, 112]               --                        --
│    │    └─GroupNorm (2): 3-3                     [4, 8, 112]               [4, 8, 112]               16                        --
│    │    └─GELU (3): 3-4                          [4, 8, 112]               [4, 8, 112]               --                        --
│    └─Sequential (2): 2-6                         [4, 8, 112]               [4, 16, 56]               --                        --
│    │    └─Conv1d (0): 3-5                        [4, 8, 112]               [4, 16, 56]               256                       [2]
│    │    └─Dropout (1): 3-6                       [4, 16, 56]               [4, 16, 56]               --                        --
│    │    └─GELU (2): 3-7                          [4, 16, 56]               [4, 16, 56]               --                        --
│    └─Sequential (3): 2-7                         [4, 16, 56]               [4, 32, 28]               --                        --
│    │    └─Conv1d (0): 3-8                        [4, 16, 56]               [4, 32, 28]               1,024                     [2]
│    │    └─Dropout (1): 3-9                       [4, 32, 28]               [4, 32, 28]               --                        --
│    │    └─GELU (2): 3-10                         [4, 32, 28]               [4, 32, 28]               --                        --
│    └─Sequential (4): 2-8                         [4, 32, 28]               [4, 64, 14]               --                        --
│    │    └─Conv1d (0): 3-11                       [4, 32, 28]               [4, 64, 14]               4,096                     [2]
│    │    └─Dropout (1): 3-12                      [4, 64, 14]               [4, 64, 14]               --                        --
│    │    └─GELU (2): 3-13                         [4, 64, 14]               [4, 64, 14]               --                        --
│    └─Sequential (5): 2-9                         [4, 64, 14]               [4, 64, 7]                --                        --
│    │    └─Conv1d (0): 3-14                       [4, 64, 14]               [4, 64, 7]                8,192                     [2]
│    │    └─Dropout (1): 3-15                      [4, 64, 7]                [4, 64, 7]                --                        --
│    │    └─GELU (2): 3-16                         [4, 64, 7]                [4, 64, 7]                --                        --
│    └─Rearrange (6): 2-10                         [4, 64, 7]                [1, 28, 64]               --                        --
├─Sequential (final_layer): 1-3                    [1, 28, 64]               [1, 2]                    --                        --
│    └─Flatten (0): 2-11                           [1, 28, 64]               [1, 1792]                 --                        --
│    └─Linear (1): 2-12                            [1, 1792]                 [1, 2]                    3,586                     --
======================================================================================================================================================
Total params: 17,670
Trainable params: 17,670
Non-trainable params: 0
Total mult-adds (Units.MEGABYTES): 0.97
======================================================================================================================================================
…
